…
mizer . Callbacks . callbacks = [ tf.keras.callbacks.EarlyStopping( monitor=&#39;val_loss&#39;, patience=10, restore_best_weights=True, verbose=1) ] . Training . autoencoder,encoder = build_autoencoder( x_train.shape[-1], y_train.shape[-1], noise=.1) . autoencoder.summary() . Model: &#34;model_5&#34; _________________________________________________________________ Layer (type) Output Shape Param # ================================================================= input_3 (InputLayer) [(None, 130)] 0 _________________________________________________________________ batch_normalization_4 (Batch (None, 130) 520 _________________________________________________________________ gaussian_noise_2 (GaussianNo (None, 130) 0 _________________________________________________________________ dense_4 (Dense) (None, 640) 83840 _________________________________________________________________ dropout_4 (Dropout) (None, 640) 0 _________________________________________________________________ decoded (Dense) (None, 130) 83330 _________________________________________________________________ dense_5 (Dense) (None, 320) 41920 _________________________________________________________________ batch_normalization_5 (Batch (None, 320) 1280 _________________________________________________________________ dropout_5 (Dropout) (None, 320) 0 _________________________________________________________________ label_output (Dense) (None, 5) 1605 ================================================================= Total params: 212,495 Trainable params: 211,595 Non-trainable params: 900 _________________________________________________________________ . history = autoencoder.fit( x_train, (x_train, y_train), epochs=1002, batch_size=16384, validation_split=0.1, callbacks=callbacks ) . Epoch 1/1002 87/87 [==============================] - 6s 3
…
