…
IMG_SIZE, 3)), base_model, tf.keras.layers.GlobalAveragePooling2D(), tf.keras.layers.Dense(256), tf.keras.layers.BatchNormalization(), tf.keras.layers.Activation(&#39;relu&#39;), tf.keras.layers.Dropout(0.3), tf.keras.layers.Dense(5, activation=&#39;softmax&#39;) ]) . model . &lt;tensorflow.python.keras.engine.sequential.Sequential at 0x7f22a1f32320&gt; . model.summary() . Model: &#34;sequential_3&#34; _________________________________________________________________ Layer (type) Output Shape Param # ================================================================= efficientnetb3 (Functional) (None, 10, 10, 1536) 10783535 _________________________________________________________________ global_average_pooling2d_3 ( (None, 1536) 0 _________________________________________________________________ dense_7 (Dense) (None, 256) 393472 _________________________________________________________________ batch_normalization_3 (Batch (None, 256) 1024 _________________________________________________________________ activation_3 (Activation) (None, 256) 0 _________________________________________________________________ dropout_3 (Dropout) (None, 256) 0 _________________________________________________________________ dense_8 (Dense) (None, 5) 1285 ================================================================= Total params: 11,179,316 Trainable params: 11,091,501 Non-trainable params: 87,815 _________________________________________________________________ . model.build([None, expect_img_size, expect_img_size, 3]) # Batch input shape. . def build_my_model(base_model, optimizer, loss=&#39;categorical_crossentropy&#39;, metrics = [&#39;cat
…
